…
I0216 09:54:14.492368  7525 solver.cpp:86] Creating training net from train_net file: train.prototxt
I0216 09:54:14.509395  7525 net.cpp:50] Initializing net from parameters: 
name: "FCN"
force_backward: true
state {
  phase: TRAIN
}
layer {
  name: "data"
  type: "Data"
  top: "data"
  transform_param {
    mirror: false
    crop_size: 0
    mean_value: 0
  }
  data_param {
    source: "db/train/images"
    batch_size: 1
    backend: LMDB
  }
}
layer {
  name: "label"
  type: "Data"
  top: "label"
  data_param {
    source: "db/train/labels"
    batch_size: 1
    backend: LMDB
  }
}
layer {
  name: "conv1"
  type: "Convolution"
  bottom: "data"
  top: "conv1"
  param {
    lr_mult: 1
    decay_mult: 1
  }
  param {
    lr_mult: 2
    decay_mult: 0
  }
  convolution_param {
    num_output: 100
    pad: 50
    kernel_size: 5
    group: 1
    stride: 2
    weight_filler {
      type: "gaussian"
      mean: 0
      std: 0.01
    }
    bias_filler {
      type: "constant"
      value: 0.1
    }
  }
}
layer {
  name: "relu1"
  type: "ReLU"
  bottom: "conv1"
  top: "conv1"
}
layer {
  name: "pool1"
  type: "Pooling"
  bottom: "conv1"
  top: "pool1"
  pooling_param {
    pool: MAX
    kernel_size: 2
    stride: 2
  }
}
layer {
  name: "conv2"
  type: "Convolution"
  bottom: "pool1"
  top: "conv2"
  param {
    lr_mult: 1
    decay_mult: 1
  }
  param {
    lr_mult: 2
    decay_mult: 0
  }
  convolution_param {
    num_output: 200
    pad: 0
    kernel_size: 5
    group: 1
    stride: 2
    weight_filler {
      type: "gaussian"
      mean: 0
      std: 0.01
    }
    bias_filler {
      type: "constant"
      value: 0.1
    }
  }
}
layer {
  name: "relu2"
  type: "ReLU"
  bottom: "conv2"
  top: "conv2"
}
layer {
  name: "pool2"
  type: "Pooling"
  bottom: "conv2"
  top: "pool2"
  pooling_param {
    pool: MAX
    kernel_size: 2
    stride: 2
  }
}
layer {
  name: "conv3"
  type: "Convolution"
  bottom: "pool2"
  top: "conv3"
  param {
    lr_mult: 1
    decay_mult: 1
  }
  param {
    lr_mult: 2
    decay_mult: 0
  }
  convolution_param {
    num_output: 300
    pad: 0
    kernel_size: 3
    group: 1
    stride: 1
    weight_filler {
      type: "gaussian"
      mean: 0
      std: 0.01
    }
    bias_filler {
      type: "constant"
      value: 0.1
    }
  }
}
layer {
  name: "relu3"
  type: "ReLU"
  bottom: "conv3"
  top: "conv3"
}
layer {
  name: "conv4"
  type: "Convolution"
  bottom: "conv3"
  top: "conv4"
  param {
    lr_mult: 1
    decay_mult: 1
  }
  param {
    lr_mult: 2
    decay_mult: 0
  }
  convolution_param {
    num_output: 300
    pad: 0
    kernel_size: 3
    group: 1
    stride: 1
    weight_filler {
      type: "gaussian"
      mean: 0
      std: 0.01
    }
    bias_filler {
      type: "constant"
      value: 0.1
    }
  }
}
layer {
  name: "relu4"
  type: "ReLU"
  bottom: "conv4"
  top: "conv4"
}
layer {
  name: "drop"
  type: "Dropout"
  bottom: "conv4"
  top: "conv4"
  dropout_param {
    dropout_ratio: 0.1
  }
}
layer {
  name: "score_classes"
  type: "Convolution"
  bottom: "conv4"
  top: "score_classes"
  param {
    lr_mult: 1
    decay_mult: 1
  }
  param {
    lr_mult: 2
    decay_mult: 0
  }
  convolution_param {
    num_output: 2
    pad: 0
    kernel_size: 1
    group: 1
    stride: 1
    weight_filler {
      type: "gaussian"
      mean: 0
      std: 0.01
    }
    bias_filler {
      type: "constant"
      value: 0.1
    }
  }
}
layer {
  name: "upscore"
  type: "Deconvolution"
  bottom: "score_classes"
  top: "upscore"
  param {
    lr_mult: 1
    decay_mult: 1
  }
  param {
    lr_mult: 2
    decay_mult: 0
  }
  convolution_param {
    num_output: 2
    bias_term: true
    pad: 8
    kernel_size: 31
    stride: 16
    weight_filler {
      type: "bilinear"
    }
    bias_filler {
      type: "constant"
      value: 0.1
    }
  }
}
layer {
  name: "score"
  type: "Crop"
  bottom: "upscore"
  bottom: "data"
  top: "score"
}
layer {
  name: "loss"
  type: "SoftmaxWithLoss"
  bottom: "score"
  bottom: "label"
  top: "loss"
  loss_param {
    normalize: true
  }
}
I0216 09:54:14.510686  7525 layer_factory.hpp:76] Creating layer data
I0216 09:54:14.526047  7525 net.cpp:111] Creating Layer data
I0216 09:54:14.526123  7525 net.cpp:434] data -> data
I0216 09:54:14.526921  7670 db_lmdb.cpp:22] Opened lmdb db/train/images
I0216 09:54:14.535147  7525 data_layer.cpp:44] output data size: 1,1,214,286
I0216 09:54:14.549669  7525 net.cpp:156] Setting up data
I0216 09:54:14.549820  7525 net.cpp:164] Top shape: 1 1 214 286 (61204)
I0216 09:54:14.549860  7525 layer_factory.hpp:76] Creating layer data_data_0_split
I0216 09:54:14.555542  7525 net.cpp:111] Creating Layer data_data_0_split
I0216 09:54:14.555677  7525 net.cpp:478] data_data_0_split <- data
I0216 09:54:14.555721  7525 net.cpp:434] data_data_0_split -> data_data_0_split_0
I0216 09:54:14.555763  7525 net.cpp:434] data_data_0_split -> data_data_0_split_1
I0216 09:54:14.555816  7525 net.cpp:156] Setting up data_data_0_split
I0216 09:54:14.555855  7525 net.cpp:164] Top shape: 1 1 214 286 (61204)
I0216 09:54:14.555888  7525 net.cpp:164] Top shape: 1 1 214 286 (61204)
I0216 09:54:14.555922  7525 layer_factory.hpp:76] Creating layer label
I0216 09:54:14.556136  7525 net.cpp:111] Creating Layer label
I0216 09:54:14.556195  7525 net.cpp:434] label -> label
I0216 09:54:14.557024  7672 db_lmdb.cpp:22] Opened lmdb db/train/labels
I0216 09:54:14.557176  7525 data_layer.cpp:44] output data size: 1,1,214,286
I0216 09:54:14.558079  7525 net.cpp:156] Setting up label
I0216 09:54:14.558096  7525 net.cpp:164] Top shape: 1 1 214 286 (61204)
I0216 09:54:14.558104  7525 layer_factory.hpp:76] Creating layer conv1
I0216 09:54:14.558121  7525 net.cpp:111] Creating Layer conv1
I0216 09:54:14.558127  7525 net.cpp:478] conv1 <- data_data_0_split_0
I0216 09:54:14.558141  7525 net.cpp:434] conv1 -> conv1
I0216 09:54:15.531352  7525 net.cpp:156] Setting up conv1
I0216 09:54:15.531433  7525 net.cpp:164] Top shape: 1 100 155 191 (2960500)
I0216 09:54:15.531474  7525 layer_factory.hpp:76] Creating layer relu1
I0216 09:54:15.531507  7525 net.cpp:111] Creating Layer relu1
I0216 09:54:15.531530  7525 net.cpp:478] relu1 <- conv1
I0216 09:54:15.531554  7525 net.cpp:420] relu1 -> conv1 (in-place)
I0216 09:54:15.531851  7525 net.cpp:156] Setting up relu1
I0216 09:54:15.531883  7525 net.cpp:164] Top shape: 1 100 155 191 (2960500)
I0216 09:54:15.531906  7525 layer_factory.hpp:76] Creating layer pool1
I0216 09:54:15.531936  7525 net.cpp:111] Creating Layer pool1
I0216 09:54:15.531957  7525 net.cpp:478] pool1 <- conv1
I0216 09:54:15.531981  7525 net.cpp:434] pool1 -> pool1
I0216 09:54:15.549422  7525 net.cpp:156] Setting up pool1
I0216 09:54:15.549494  7525 net.cpp:164] Top shape: 1 100 78 96 (748800)
I0216 09:54:15.549518  7525 layer_factory.hpp:76] Creating layer conv2
I0216 09:54:15.549549  7525 net.cpp:111] Creating Layer conv2
I0216 09:54:15.549572  7525 net.cpp:478] conv2 <- pool1
I0216 09:54:15.549599  7525 net.cpp:434] conv2 -> conv2
I0216 09:54:15.558030  7525 net.cpp:156] Setting up conv2
I0216 09:54:15.558101  7525 net.cpp:164] Top shape: 1 200 37 46 (340400)
I0216 09:54:15.558137  7525 layer_factory.hpp:76] Creating layer relu2
I0216 09:54:15.558172  7525 net.cpp:111] Creating Layer relu2
I0216 09:54:15.558197  7525 net.cpp:478] relu2 <- conv2
I0216 09:54:15.558223  7525 net.cpp:420] relu2 -> conv2 (in-place)
I0216 09:54:15.558511  7525 net.cpp:156] Setting up relu2
I0216 09:54:15.558540  7525 net.cpp:164] Top shape: 1 200 37 46 (340400)
I0216 09:54:15.558562  7525 layer_factory.hpp:76] Creating layer pool2
I0216 09:54:15.558589  7525 net.cpp:111] Creating Layer pool2
I0216 09:54:15.558610  7525 net.cpp:478] pool2 <- conv2
I0216 09:54:15.558640  7525 net.cpp:434] pool2 -> pool2
I0216 09:54:15.558830  7525 net.cpp:156] Setting up pool2
I0216 09:54:15.558858  7525 net.cpp:164] Top shape: 1 200 19 23 (87400)
I0216 09:54:15.558878  7525 layer_factory.hpp:76] Creating layer conv3
I0216 09:54:15.558904  7525 net.cpp:111] Creating Layer conv3
I0216 09:54:15.558924  7525 net.cpp:478] conv3 <- pool2
I0216 09:54:15.558948  7525 net.cpp:434] conv3 -> conv3
I0216 09:54:15.568264  7525 net.cpp:156] Setting up conv3
I0216 09:54:15.568334  7525 net.cpp:164] Top shape: 1 300 17 21 (107100)
I0216 09:54:15.568367  7525 layer_factory.hpp:76] Creating layer relu3
I0216 09:54:15.568392  7525 net.cpp:111] Creating Layer relu3
I0216 09:54:15.568413  7525 net.cpp:478] relu3 <- conv3
I0216 09:54:15.568436  7525 net.cpp:420] relu3 -> conv3 (in-place)
I0216 09:54:15.568614  7525 net.cpp:156] Setting up relu3
I0216 09:54:15.568640  7525 net.cpp:164] Top shape: 1 300 17 21 (107100)
I0216 09:54:15.568660  7525 layer_factory.hpp:76] Creating layer conv4
I0216 09:54:15.568684  7525 net.cpp:111] Creating Layer conv4
I0216 09:54:15.568702  7525 net.cpp:478] conv4 <- conv3
I0216 09:54:15.568724  7525 net.cpp:434] conv4 -> conv4
I0216 09:54:15.581204  7525 net.cpp:156] Setting up conv4
I0216 09:54:15.581271  7525 net.cpp:164] Top shape: 1 300 15 19 (85500)
I0216 09:54:15.581300  7525 layer_factory.hpp:76] Creating layer relu4
I0216 09:54:15.581323  7525 net.cpp:111] Creating Layer relu4
I0216 09:54:15.581343  7525 net.cpp:478] relu4 <- conv4
I0216 09:54:15.581367  7525 net.cpp:420] relu4 -> conv4 (in-place)
I0216 09:54:15.581637  7525 net.cpp:156] Setting up relu4
I0216 09:54:15.581665  7525 net.cpp:164] Top shape: 1 300 15 19 (85500)
I0216 09:54:15.581684  7525 layer_factory.hpp:76] Creating layer drop
I0216 09:54:15.581707  7525 net.cpp:111] Creating Layer drop
I0216 09:54:15.581725  7525 net.cpp:478] drop <- conv4
I0216 09:54:15.581746  7525 net.cpp:420] drop -> conv4 (in-place)
I0216 09:54:15.581775  7525 net.cpp:156] Setting up drop
I0216 09:54:15.581796  7525 net.cpp:164] Top shape: 1 300 15 19 (85500)
I0216 09:54:15.581815  7525 layer_factory.hpp:76] Creating layer score_classes
I0216 09:54:15.581838  7525 net.cpp:111] Creating Layer score_classes
I0216 09:54:15.581856  7525 net.cpp:478] score_classes <- conv4
I0216 09:54:15.581878  7525 net.cpp:434] score_classes -> score_classes
I0216 09:54:15.582638  7525 net.cpp:156] Setting up score_classes
I0216 09:54:15.582669  7525 net.cpp:164] Top shape: 1 2 15 19 (570)
I0216 09:54:15.582698  7525 layer_factory.hpp:76] Creating layer upscore
I0216 09:54:15.582731  7525 net.cpp:111] Creating Layer upscore
I0216 09:54:15.582751  7525 net.cpp:478] upscore <- score_classes
I0216 09:54:15.582772  7525 net.cpp:434] upscore -> upscore
I0216 09:54:15.583513  7525 net.cpp:156] Setting up upscore
I0216 09:54:15.583559  7525 net.cpp:164] Top shape: 1 2 239 303 (144834)
I0216 09:54:15.583581  7525 layer_factory.hpp:76] Creating layer score
I0216 09:54:15.583614  7525 net.cpp:111] Creating Layer score
I0216 09:54:15.583634  7525 net.cpp:478] score <- upscore
I0216 09:54:15.583655  7525 net.cpp:478] score <- data_data_0_split_1
I0216 09:54:15.583676  7525 net.cpp:434] score -> score
I0216 09:54:15.583742  7525 net.cpp:156] Setting up score
I0216 09:54:15.583765  7525 net.cpp:164] Top shape: 1 2 214 286 (122408)
I0216 09:54:15.583784  7525 layer_factory.hpp:76] Creating layer loss
I0216 09:54:15.583807  7525 net.cpp:111] Creating Layer loss
I0216 09:54:15.583827  7525 net.cpp:478] loss <- score
I0216 09:54:15.583845  7525 net.cpp:478] loss <- label
I0216 09:54:15.583866  7525 net.cpp:434] loss -> loss
I0216 09:54:15.589228  7525 layer_factory.hpp:76] Creating layer loss
I0216 09:54:15.589768  7525 net.cpp:156] Setting up loss
…
I0216 09:54:15.600543  7525 solver.cpp:186] Creating test net (#0) specified by test_net file: val.prototxt
I0216 09:54:15.600811  7525 net.cpp:50] Initializing net from parameters: 
name: "FCN"
force_backward: true
state {
  phase: TEST
}
layer {
  name: "data"
  type: "Data"
  top: "data"
  transform_param {
    mirror: false
    crop_size: 0
    mean_value: 0
  }
  data_param {
    source: "db/val/images"
    batch_size: 1
    backend: LMDB
  }
}
layer {
  name: "label"
  type: "Data"
  top: "label"
  data_param {
    source: "db/val/labels"
    batch_size: 1
    backend: LMDB
  }
}
layer {
  name: "conv1"
  type: "Convolution"
  bottom: "data"
  top: "conv1"
  param {
    lr_mult: 1
    decay_mult: 1
  }
  param {
    lr_mult: 2
    decay_mult: 0
  }
  convolution_param {
    num_output: 100
    pad: 50
    kernel_size: 5
    group: 1
    stride: 2
    weight_filler {
      type: "gaussian"
      mean: 0
      std: 0.01
    }
    bias_filler {
      type: "constant"
      value: 0.1
    }
  }
}
layer {
  name: "relu1"
  type: "ReLU"
  bottom: "conv1"
  top: "conv1"
}
layer {
  name: "pool1"
  type: "Pooling"
  bottom: "conv1"
  top: "pool1"
  pooling_param {
    pool: MAX
    kernel_size: 2
    stride: 2
  }
}
layer {
  name: "conv2"
  type: "Convolution"
  bottom: "pool1"
  top: "conv2"
  param {
    lr_mult: 1
    decay_mult: 1
  }
  param {
    lr_mult: 2
    decay_mult: 0
  }
  convolution_param {
    num_output: 200
    pad: 0
    kernel_size: 5
    group: 1
    stride: 2
    weight_filler {
      type: "gaussian"
      mean: 0
      std: 0.01
    }
    bias_filler {
      type: "constant"
      value: 0.1
    }
  }
}
layer {
  name: "relu2"
  type: "ReLU"
  bottom: "conv2"
  top: "conv2"
}
layer {
  name: "pool2"
  type: "Pooling"
  bottom: "conv2"
  top: "pool2"
  pooling_param {
    pool: MAX
    kernel_size: 2
    stride: 2
  }
}
layer {
  name: "conv3"
  type: "Convolution"
  bottom: "pool2"
  top: "conv3"
  param {
    lr_mult: 1
    decay_mult: 1
  }
  param {
    lr_mult: 2
    decay_mult: 0
  }
  convolution_param {
    num_output: 300
    pad: 0
    kernel_size: 3
    group: 1
    stride: 1
    weight_filler {
      type: "gaussian"
      mean: 0
      std: 0.01
    }
    bias_filler {
      type: "constant"
      value: 0.1
    }
  }
}
layer {
  name: "relu3"
  type: "ReLU"
  bottom: "conv3"
  top: "conv3"
}
layer {
  name: "conv4"
  type: "Convolution"
  bottom: "conv3"
  top: "conv4"
  param {
    lr_mult: 1
    decay_mult: 1
  }
  param {
    lr_mult: 2
    decay_mult: 0
  }
  convolution_param {
    num_output: 300
    pad: 0
    kernel_size: 3
    group: 1
    stride: 1
    weight_filler {
      type: "gaussian"
      mean: 0
      std: 0.01
    }
    bias_filler {
      type: "constant"
      value: 0.1
    }
  }
}
layer {
  name: "relu4"
  type: "ReLU"
  bottom: "conv4"
  top: "conv4"
}
layer {
  name: "drop"
  type: "Dropout"
  bottom: "conv4"
  top: "conv4"
  dropout_param {
    dropout_ratio: 0.1
  }
}
layer {
  name: "score_classes"
  type: "Convolution"
  bottom: "conv4"
  top: "score_classes"
  param {
    lr_mult: 1
    decay_mult: 1
  }
  param {
    lr_mult: 2
    decay_mult: 0
  }
  convolution_param {
    num_output: 2
    pad: 0
    kernel_size: 1
    group: 1
    stride: 1
    weight_filler {
      type: "gaussian"
      mean: 0
      std: 0.01
    }
    bias_filler {
      type: "constant"
      value: 0.1
    }
  }
}
layer {
  name: "upscore"
  type: "Deconvolution"
  bottom: "score_classes"
  top: "upscore"
  param {
    lr_mult: 1
    decay_mult: 1
  }
  param {
    lr_mult: 2
    decay_mult: 0
  }
  convolution_param {
    num_output: 2
    bias_term: true
    pad: 8
    kernel_size: 31
    stride: 16
    weight_filler {
      type: "bilinear"
    }
    bias_filler {
      type: "constant"
      value: 0.1
    }
  }
}
layer {
  name: "score"
  type: "Crop"
  bottom: "upscore"
  bottom: "data"
  top: "score"
}
layer {
  name: "loss"
  type: "SoftmaxWithLoss"
  bottom: "score"
  bottom: "label"
  top: "loss"
  loss_param {
    normalize: true
  }
}
layer {
  name: "accuracy"
  type: "Accuracy"
  bottom: "score"
  bottom: "label"
  top: "accuracy"
}
I0216 09:54:15.601910  7525 layer_factory.hpp:76] Creating layer data
I0216 09:54:15.601999  7525 net.cpp:111] Creating Layer data
I0216 09:54:15.602025  7525 net.cpp:434] data -> data
I0216 09:54:15.602802  7762 db_lmdb.cpp:22] Opened lmdb db/val/images
I0216 09:54:15.603080  7525 data_layer.cpp:44] output data size: 1,1,304,228
I0216 09:54:15.603952  7525 net.cpp:156] Setting up data
I0216 09:54:15.604009  7525 net.cpp:164] Top shape: 1 1 304 228 (69312)
I0216 09:54:15.604044  7525 layer_factory.hpp:76] Creating layer data_data_0_split
I0216 09:54:15.604081  7525 net.cpp:111] Creating Layer data_data_0_split
I0216 09:54:15.604111  7525 net.cpp:478] data_data_0_split <- data
I0216 09:54:15.604145  7525 net.cpp:434] data_data_0_split -> data_data_0_split_0
I0216 09:54:15.604181  7525 net.cpp:434] data_data_0_split -> data_data_0_split_1
I0216 09:54:15.604217  7525 net.cpp:156] Setting up data_data_0_split
I0216 09:54:15.604249  7525 net.cpp:164] Top shape: 1 1 304 228 (69312)
I0216 09:54:15.604280  7525 net.cpp:164] Top shape: 1 1 304 228 (69312)
I0216 09:54:15.604318  7525 layer_factory.hpp:76] Creating layer label
I0216 09:54:15.604383  7525 net.cpp:111] Creating Layer label
I0216 09:54:15.604418  7525 net.cpp:434] label -> label
I0216 09:54:15.605126  7764 db_lmdb.cpp:22] Opened lmdb db/val/labels
I0216 09:54:15.605402  7525 data_layer.cpp:44] output data size: 1,1,304,228
I0216 09:54:15.606242  7525 net.cpp:156] Setting up label
I0216 09:54:15.607858  7525 net.cpp:164] Top shape: 1 1 304 228 (69312)
I0216 09:54:15.607909  7525 layer_factory.hpp:76] Creating layer label_label_0_split
I0216 09:54:15.607946  7525 net.cpp:111] Creating Layer label_label_0_split
I0216 09:54:15.607977  7525 net.cpp:478] label_label_0_split <- label
I0216 09:54:15.608011  7525 net.cpp:434] label_label_0_split -> label_label_0_split_0
I0216 09:54:15.608049  7525 net.cpp:434] label_label_0_split -> label_label_0_split_1
I0216 09:54:15.608089  7525 net.cpp:156] Setting up label_label_0_split
I0216 09:54:15.608122  7525 net.cpp:164] Top shape: 1 1 304 228 (69312)
I0216 09:54:15.608153  7525 net.cpp:164] Top shape: 1 1 304 228 (69312)
I0216 09:54:15.608183  7525 layer_factory.hpp:76] Creating layer conv1
I0216 09:54:15.608220  7525 net.cpp:111] Creating Layer conv1
I0216 09:54:15.608253  7525 net.cpp:478] conv1 <- data_data_0_split_0
I0216 09:54:15.608285  7525 net.cpp:434] conv1 -> conv1
I0216 09:54:15.609287  7525 net.cpp:156] Setting up conv1
I0216 09:54:15.609346  7525 net.cpp:164] Top shape: 1 100 200 162 (3240000)
I0216 09:54:15.609390  7525 layer_factory.hpp:76] Creating layer relu1
I0216 09:54:15.609431  7525 net.cpp:111] Creating Layer relu1
I0216 09:54:15.609462  7525 net.cpp:478] relu1 <- conv1
I0216 09:54:15.609498  7525 net.cpp:420] relu1 -> conv1 (in-place)
I0216 09:54:15.609706  7525 net.cpp:156] Setting up relu1
I0216 09:54:15.609745  7525 net.cpp:164] Top shape: 1 100 200 162 (3240000)
I0216 09:54:15.609776  7525 layer_factory.hpp:76] Creating layer pool1
I0216 09:54:15.609812  7525 net.cpp:111] Creating Layer pool1
I0216 09:54:15.609841  7525 net.cpp:478] pool1 <- conv1
I0216 09:54:15.609874  7525 net.cpp:434] pool1 -> pool1
I0216 09:54:15.610185  7525 net.cpp:156] Setting up pool1
I0216 09:54:15.610235  7525 net.cpp:164] Top shape: 1 100 100 81 (810000)
I0216 09:54:15.610268  7525 layer_factory.hpp:76] Creating layer conv2
I0216 09:54:15.610303  7525 net.cpp:111] Creating Layer conv2
I0216 09:54:15.610334  7525 net.cpp:478] conv2 <- pool1
I0216 09:54:15.610366  7525 net.cpp:434] conv2 -> conv2
I0216 09:54:15.619037  7525 net.cpp:156] Setting up conv2
I0216 09:54:15.620615  7525 net.cpp:164] Top shape: 1 200 48 39 (374400)
I0216 09:54:15.622257  7525 layer_factory.hpp:76] Creating layer relu2
I0216 09:54:15.622303  7525 net.cpp:111] Creating Layer relu2
I0216 09:54:15.622344  7525 net.cpp:478] relu2 <- conv2
I0216 09:54:15.622421  7525 net.cpp:420] relu2 -> conv2 (in-place)
I0216 09:54:15.622697  7525 net.cpp:156] Setting up relu2
I0216 09:54:15.622761  7525 net.cpp:164] Top shape: 1 200 48 39 (374400)
I0216 09:54:15.622797  7525 layer_factory.hpp:76] Creating layer pool2
I0216 09:54:15.622835  7525 net.cpp:111] Creating Layer pool2
I0216 09:54:15.622869  7525 net.cpp:478] pool2 <- conv2
I0216 09:54:15.622907  7525 net.cpp:434] pool2 -> pool2
I0216 09:54:15.623282  7525 net.cpp:156] Setting up pool2
I0216 09:54:15.623350  7525 net.cpp:164] Top shape: 1 200 24 20 (96000)
I0216 09:54:15.623386  7525 layer_factory.hpp:76] Creating layer conv3
I0216 09:54:15.623425  7525 net.cpp:111] Creating Layer conv3
I0216 09:54:15.623458  7525 net.cpp:478] conv3 <- pool2
I0216 09:54:15.623502  7525 net.cpp:434] conv3 -> conv3
I0216 09:54:15.641690  7525 net.cpp:156] Setting up conv3
I0216 09:54:15.641849  7525 net.cpp:164] Top shape: 1 300 22 18 (118800)
I0216 09:54:15.641903  7525 layer_factory.hpp:76] Creating layer relu3
I0216 09:54:15.641942  7525 net.cpp:111] Creating Layer relu3
I0216 09:54:15.641988  7525 net.cpp:478] relu3 <- conv3
I0216 09:54:15.642024  7525 net.cpp:420] relu3 -> conv3 (in-place)
I0216 09:54:15.642263  7525 net.cpp:156] Setting up relu3
I0216 09:54:15.642345  7525 net.cpp:164] Top shape: 1 300 22 18 (118800)
I0216 09:54:15.642390  7525 layer_factory.hpp:76] Creating layer conv4
I0216 09:54:15.642443  7525 net.cpp:111] Creating Layer conv4
I0216 09:54:15.642478  7525 net.cpp:478] conv4 <- conv3
I0216 09:54:15.642516  7525 net.cpp:434] conv4 -> conv4
I0216 09:54:15.658860  7525 net.cpp:156] Setting up conv4
I0216 09:54:15.659020  7525 net.cpp:164] Top shape: 1 300 20 16 (96000)
I0216 09:54:15.659066  7525 layer_factory.hpp:76] Creating layer relu4
I0216 09:54:15.659111  7525 net.cpp:111] Creating Layer relu4
I0216 09:54:15.659149  7525 net.cpp:478] relu4 <- conv4
I0216 09:54:15.659200  7525 net.cpp:420] relu4 -> conv4 (in-place)
I0216 09:54:15.659536  7525 net.cpp:156] Setting up relu4
I0216 09:54:15.659605  7525 net.cpp:164] Top shape: 1 300 20 16 (96000)
I0216 09:54:15.659641  7525 layer_factory.hpp:76] Creating layer drop
I0216 09:54:15.659679  7525 net.cpp:111] Creating Layer drop
I0216 09:54:15.659713  7525 net.cpp:478] drop <- conv4
I0216 09:54:15.659752  7525 net.cpp:420] drop -> conv4 (in-place)
I0216 09:54:15.659790  7525 net.cpp:156] Setting up drop
I0216 09:54:15.659823  7525 net.cpp:164] Top shape: 1 300 20 16 (96000)
I0216 09:54:15.659857  7525 layer_factory.hpp:76] Creating layer score_classes
I0216 09:54:15.659909  7525 net.cpp:111] Creating Layer score_classes
I0216 09:54:15.659940  7525 net.cpp:478] score_classes <- conv4
I0216 09:54:15.659978  7525 net.cpp:434] score_classes -> score_classes
I0216 09:54:15.660789  7525 net.cpp:156] Setting up score_classes
I0216 09:54:15.660867  7525 net.cpp:164] Top shape: 1 2 20 16 (640)
I0216 09:54:15.660912  7525 layer_factory.hpp:76] Creating layer upscore
I0216 09:54:15.660953  7525 net.cpp:111] Creating Layer upscore
I0216 09:54:15.661020  7525 net.cpp:478] upscore <- score_classes
I0216 09:54:15.661073  7525 net.cpp:434] upscore -> upscore
I0216 09:54:15.661949  7525 net.cpp:156] Setting up upscore
I0216 09:54:15.662021  7525 net.cpp:164] Top shape: 1 2 319 255 (162690)
I0216 09:54:15.662061  7525 layer_factory.hpp:76] Creating layer score
I0216 09:54:15.662103  7525 net.cpp:111] Creating Layer score
I0216 09:54:15.662139  7525 net.cpp:478] score <- upscore
I0216 09:54:15.662191  7525 net.cpp:478] score <- data_data_0_split_1
I0216 09:54:15.662242  7525 net.cpp:434] score -> score
I0216 09:54:15.662305  7525 net.cpp:156] Setting up score
I0216 09:54:15.662365  7525 net.cpp:164] Top shape: 1 2 304 228 (138624)
I0216 09:54:15.662400  7525 layer_factory.hpp:76] Creating layer score_score_0_split
I0216 09:54:15.662436  7525 net.cpp:111] Creating Layer score_score_0_split
I0216 09:54:15.662470  7525 net.cpp:478] score_score_0_split <- score
I0216 09:54:15.662506  7525 net.cpp:434] score_score_0_split -> score_score_0_split_0
I0216 09:54:15.662545  7525 net.cpp:434] score_score_0_split -> score_score_0_split_1
I0216 09:54:15.662587  7525 net.cpp:156] Setting up score_score_0_split
I0216 09:54:15.662636  7525 net.cpp:164] Top shape: 1 2 304 228 (138624)
I0216 09:54:15.662670  7525 net.cpp:164] Top shape: 1 2 304 228 (138624)
I0216 09:54:15.662708  7525 layer_factory.hpp:76] Creating layer loss
I0216 09:54:15.662744  7525 net.cpp:111] Creating Layer loss
I0216 09:54:15.662787  7525 net.cpp:478] loss <- score_score_0_split_0
I0216 09:54:15.662822  7525 net.cpp:478] loss <- label_label_0_split_0
I0216 09:54:15.662868  7525 net.cpp:434] loss -> loss
I0216 09:54:15.662907  7525 layer_factory.hpp:76] Creating layer loss
…
