…
I0216 17:25:39.626852 29927 solver.cpp:86] Creating training net from train_net file: train.prototxt
I0216 17:25:39.627358 29927 net.cpp:50] Initializing net from parameters: 
name: "FCN"
force_backward: true
state {
  phase: TRAIN
}
layer {
  name: "data"
  type: "Data"
  top: "data"
  transform_param {
    mirror: false
    crop_size: 0
    mean_value: 0
  }
  data_param {
    source: "db/train/images"
    batch_size: 1
    backend: LMDB
  }
}
layer {
  name: "label"
  type: "Data"
  top: "label"
  data_param {
    source: "db/train/labels"
    batch_size: 1
    backend: LMDB
  }
}
layer {
  name: "conv1"
  type: "Convolution"
  bottom: "data"
  top: "conv1"
  param {
    lr_mult: 1
    decay_mult: 1
  }
  param {
    lr_mult: 2
    decay_mult: 0
  }
  convolution_param {
    num_output: 100
    pad: 50
    kernel_size: 5
    group: 1
    stride: 2
    weight_filler {
      type: "gaussian"
      mean: 0
      std: 0.01
    }
    bias_filler {
      type: "constant"
      value: 0.1
    }
  }
}
layer {
  name: "relu1"
  type: "ReLU"
  bottom: "conv1"
  top: "conv1"
}
layer {
  name: "pool1"
  type: "Pooling"
  bottom: "conv1"
  top: "pool1"
  pooling_param {
    pool: MAX
    kernel_size: 2
    stride: 2
  }
}
layer {
  name: "conv2"
  type: "Convolution"
  bottom: "pool1"
  top: "conv2"
  param {
    lr_mult: 1
    decay_mult: 1
  }
  param {
    lr_mult: 2
    decay_mult: 0
  }
  convolution_param {
    num_output: 200
    pad: 0
    kernel_size: 5
    group: 1
    stride: 2
    weight_filler {
      type: "gaussian"
      mean: 0
      std: 0.01
    }
    bias_filler {
      type: "constant"
      value: 0.1
    }
  }
}
layer {
  name: "relu2"
  type: "ReLU"
  bottom: "conv2"
  top: "conv2"
}
layer {
  name: "pool2"
  type: "Pooling"
  bottom: "conv2"
  top: "pool2"
  pooling_param {
    pool: MAX
    kernel_size: 2
    stride: 2
  }
}
layer {
  name: "conv3"
  type: "Convolution"
  bottom: "pool2"
  top: "conv3"
  param {
    lr_mult: 1
    decay_mult: 1
  }
  param {
    lr_mult: 2
    decay_mult: 0
  }
  convolution_param {
    num_output: 300
    pad: 0
    kernel_size: 3
    group: 1
    stride: 1
    weight_filler {
      type: "gaussian"
      mean: 0
      std: 0.01
    }
    bias_filler {
      type: "constant"
      value: 0.1
    }
  }
}
layer {
  name: "relu3"
  type: "ReLU"
  bottom: "conv3"
  top: "conv3"
}
layer {
  name: "conv4"
  type: "Convolution"
  bottom: "conv3"
  top: "conv4"
  param {
    lr_mult: 1
    decay_mult: 1
  }
  param {
    lr_mult: 2
    decay_mult: 0
  }
  convolution_param {
    num_output: 300
    pad: 0
    kernel_size: 3
    group: 1
    stride: 1
    weight_filler {
      type: "gaussian"
      mean: 0
      std: 0.01
    }
    bias_filler {
      type: "constant"
      value: 0.1
    }
  }
}
layer {
  name: "relu4"
  type: "ReLU"
  bottom: "conv4"
  top: "conv4"
}
layer {
  name: "drop"
  type: "Dropout"
  bottom: "conv4"
  top: "conv4"
  dropout_param {
    dropout_ratio: 0.1
  }
}
layer {
  name: "score_classes"
  type: "Convolution"
  bottom: "conv4"
  top: "score_classes"
  param {
    lr_mult: 1
    decay_mult: 1
  }
  param {
    lr_mult: 2
    decay_mult: 0
  }
  convolution_param {
    num_output: 2
    pad: 0
    kernel_size: 1
    group: 1
    stride: 1
    weight_filler {
      type: "gaussian"
      mean: 0
      std: 0.01
    }
    bias_filler {
      type: "constant"
      value: 0.1
    }
  }
}
layer {
  name: "upscore"
  type: "Deconvolution"
  bottom: "score_classes"
  top: "upscore"
  param {
    lr_mult: 1
    decay_mult: 1
  }
  param {
    lr_mult: 2
    decay_mult: 0
  }
  convolution_param {
    num_output: 2
    bias_term: true
    pad: 8
    kernel_size: 31
    stride: 16
    weight_filler {
      type: "bilinear"
    }
    bias_filler {
      type: "constant"
      value: 0.1
    }
  }
}
layer {
  name: "score"
  type: "Crop"
  bottom: "upscore"
  bottom: "data"
  top: "score"
}
layer {
  name: "loss"
  type: "SoftmaxWithLoss"
  bottom: "score"
  bottom: "label"
  top: "loss"
  loss_param {
    normalize: true
  }
}
I0216 17:25:39.627486 29927 layer_factory.hpp:76] Creating layer data
I0216 17:25:39.627601 29927 net.cpp:111] Creating Layer data
I0216 17:25:39.627614 29927 net.cpp:434] data -> data
I0216 17:25:39.628212 29934 db_lmdb.cpp:22] Opened lmdb db/train/images
I0216 17:25:39.628294 29927 data_layer.cpp:44] output data size: 1,1,178,237
I0216 17:25:39.633180 29927 net.cpp:156] Setting up data
I0216 17:25:39.633203 29927 net.cpp:164] Top shape: 1 1 178 237 (42186)
I0216 17:25:39.633214 29927 layer_factory.hpp:76] Creating layer data_data_0_split
I0216 17:25:39.633256 29927 net.cpp:111] Creating Layer data_data_0_split
I0216 17:25:39.633268 29927 net.cpp:478] data_data_0_split <- data
I0216 17:25:39.633282 29927 net.cpp:434] data_data_0_split -> data_data_0_split_0
I0216 17:25:39.633297 29927 net.cpp:434] data_data_0_split -> data_data_0_split_1
I0216 17:25:39.633316 29927 net.cpp:156] Setting up data_data_0_split
I0216 17:25:39.633327 29927 net.cpp:164] Top shape: 1 1 178 237 (42186)
I0216 17:25:39.633334 29927 net.cpp:164] Top shape: 1 1 178 237 (42186)
I0216 17:25:39.633342 29927 layer_factory.hpp:76] Creating layer label
I0216 17:25:39.633389 29927 net.cpp:111] Creating Layer label
I0216 17:25:39.633399 29927 net.cpp:434] label -> label
I0216 17:25:39.634680 29936 db_lmdb.cpp:22] Opened lmdb db/train/labels
I0216 17:25:39.634829 29927 data_layer.cpp:44] output data size: 1,1,178,237
I0216 17:25:39.635686 29927 net.cpp:156] Setting up label
I0216 17:25:39.635701 29927 net.cpp:164] Top shape: 1 1 178 237 (42186)
I0216 17:25:39.635709 29927 layer_factory.hpp:76] Creating layer conv1
I0216 17:25:39.635723 29927 net.cpp:111] Creating Layer conv1
I0216 17:25:39.635730 29927 net.cpp:478] conv1 <- data_data_0_split_0
I0216 17:25:39.635746 29927 net.cpp:434] conv1 -> conv1
I0216 17:25:39.736707 29927 net.cpp:156] Setting up conv1
I0216 17:25:39.736747 29927 net.cpp:164] Top shape: 1 100 137 167 (2287900)
I0216 17:25:39.736773 29927 layer_factory.hpp:76] Creating layer relu1
I0216 17:25:39.736788 29927 net.cpp:111] Creating Layer relu1
I0216 17:25:39.736796 29927 net.cpp:478] relu1 <- conv1
I0216 17:25:39.736805 29927 net.cpp:420] relu1 -> conv1 (in-place)
I0216 17:25:39.737013 29927 net.cpp:156] Setting up relu1
I0216 17:25:39.737025 29927 net.cpp:164] Top shape: 1 100 137 167 (2287900)
I0216 17:25:39.737032 29927 layer_factory.hpp:76] Creating layer pool1
I0216 17:25:39.737046 29927 net.cpp:111] Creating Layer pool1
I0216 17:25:39.737053 29927 net.cpp:478] pool1 <- conv1
I0216 17:25:39.737061 29927 net.cpp:434] pool1 -> pool1
I0216 17:25:39.737190 29927 net.cpp:156] Setting up pool1
I0216 17:25:39.737200 29927 net.cpp:164] Top shape: 1 100 69 84 (579600)
I0216 17:25:39.737207 29927 layer_factory.hpp:76] Creating layer conv2
I0216 17:25:39.737221 29927 net.cpp:111] Creating Layer conv2
I0216 17:25:39.737229 29927 net.cpp:478] conv2 <- pool1
I0216 17:25:39.737239 29927 net.cpp:434] conv2 -> conv2
I0216 17:25:39.743178 29927 net.cpp:156] Setting up conv2
I0216 17:25:39.743192 29927 net.cpp:164] Top shape: 1 200 33 40 (264000)
I0216 17:25:39.743207 29927 layer_factory.hpp:76] Creating layer relu2
I0216 17:25:39.743216 29927 net.cpp:111] Creating Layer relu2
I0216 17:25:39.743222 29927 net.cpp:478] relu2 <- conv2
I0216 17:25:39.743232 29927 net.cpp:420] relu2 -> conv2 (in-place)
I0216 17:25:39.743427 29927 net.cpp:156] Setting up relu2
I0216 17:25:39.743438 29927 net.cpp:164] Top shape: 1 200 33 40 (264000)
I0216 17:25:39.743445 29927 layer_factory.hpp:76] Creating layer pool2
I0216 17:25:39.743456 29927 net.cpp:111] Creating Layer pool2
I0216 17:25:39.743463 29927 net.cpp:478] pool2 <- conv2
I0216 17:25:39.743471 29927 net.cpp:434] pool2 -> pool2
I0216 17:25:39.743602 29927 net.cpp:156] Setting up pool2
I0216 17:25:39.743613 29927 net.cpp:164] Top shape: 1 200 17 20 (68000)
I0216 17:25:39.743620 29927 layer_factory.hpp:76] Creating layer conv3
I0216 17:25:39.743630 29927 net.cpp:111] Creating Layer conv3
I0216 17:25:39.743636 29927 net.cpp:478] conv3 <- pool2
I0216 17:25:39.743648 29927 net.cpp:434] conv3 -> conv3
I0216 17:25:39.750267 29927 net.cpp:156] Setting up conv3
I0216 17:25:39.750285 29927 net.cpp:164] Top shape: 1 300 15 18 (81000)
I0216 17:25:39.750300 29927 layer_factory.hpp:76] Creating layer relu3
I0216 17:25:39.750313 29927 net.cpp:111] Creating Layer relu3
I0216 17:25:39.750319 29927 net.cpp:478] relu3 <- conv3
I0216 17:25:39.750327 29927 net.cpp:420] relu3 -> conv3 (in-place)
I0216 17:25:39.750455 29927 net.cpp:156] Setting up relu3
I0216 17:25:39.750466 29927 net.cpp:164] Top shape: 1 300 15 18 (81000)
I0216 17:25:39.750473 29927 layer_factory.hpp:76] Creating layer conv4
I0216 17:25:39.750486 29927 net.cpp:111] Creating Layer conv4
I0216 17:25:39.750496 29927 net.cpp:478] conv4 <- conv3
I0216 17:25:39.750506 29927 net.cpp:434] conv4 -> conv4
I0216 17:25:39.759747 29927 net.cpp:156] Setting up conv4
I0216 17:25:39.759762 29927 net.cpp:164] Top shape: 1 300 13 16 (62400)
I0216 17:25:39.759773 29927 layer_factory.hpp:76] Creating layer relu4
I0216 17:25:39.759784 29927 net.cpp:111] Creating Layer relu4
I0216 17:25:39.759791 29927 net.cpp:478] relu4 <- conv4
I0216 17:25:39.759799 29927 net.cpp:420] relu4 -> conv4 (in-place)
I0216 17:25:39.760006 29927 net.cpp:156] Setting up relu4
I0216 17:25:39.760018 29927 net.cpp:164] Top shape: 1 300 13 16 (62400)
I0216 17:25:39.760025 29927 layer_factory.hpp:76] Creating layer drop
I0216 17:25:39.760036 29927 net.cpp:111] Creating Layer drop
I0216 17:25:39.760043 29927 net.cpp:478] drop <- conv4
I0216 17:25:39.760051 29927 net.cpp:420] drop -> conv4 (in-place)
I0216 17:25:39.760066 29927 net.cpp:156] Setting up drop
I0216 17:25:39.760076 29927 net.cpp:164] Top shape: 1 300 13 16 (62400)
I0216 17:25:39.760082 29927 layer_factory.hpp:76] Creating layer score_classes
I0216 17:25:39.760094 29927 net.cpp:111] Creating Layer score_classes
I0216 17:25:39.760100 29927 net.cpp:478] score_classes <- conv4
I0216 17:25:39.760112 29927 net.cpp:434] score_classes -> score_classes
I0216 17:25:39.760704 29927 net.cpp:156] Setting up score_classes
I0216 17:25:39.760715 29927 net.cpp:164] Top shape: 1 2 13 16 (416)
I0216 17:25:39.760730 29927 layer_factory.hpp:76] Creating layer upscore
I0216 17:25:39.760742 29927 net.cpp:111] Creating Layer upscore
I0216 17:25:39.760751 29927 net.cpp:478] upscore <- score_classes
I0216 17:25:39.760761 29927 net.cpp:434] upscore -> upscore
I0216 17:25:39.760957 29927 net.cpp:156] Setting up upscore
I0216 17:25:39.760967 29927 net.cpp:164] Top shape: 1 2 207 255 (105570)
I0216 17:25:39.760977 29927 layer_factory.hpp:76] Creating layer score
I0216 17:25:39.760998 29927 net.cpp:111] Creating Layer score
I0216 17:25:39.761005 29927 net.cpp:478] score <- upscore
I0216 17:25:39.761013 29927 net.cpp:478] score <- data_data_0_split_1
I0216 17:25:39.761021 29927 net.cpp:434] score -> score
I0216 17:25:39.761065 29927 net.cpp:156] Setting up score
I0216 17:25:39.761073 29927 net.cpp:164] Top shape: 1 2 178 237 (84372)
I0216 17:25:39.761080 29927 layer_factory.hpp:76] Creating layer loss
I0216 17:25:39.761092 29927 net.cpp:111] Creating Layer loss
I0216 17:25:39.761099 29927 net.cpp:478] loss <- score
I0216 17:25:39.761106 29927 net.cpp:478] loss <- label
I0216 17:25:39.761114 29927 net.cpp:434] loss -> loss
I0216 17:25:39.761134 29927 layer_factory.hpp:76] Creating layer loss
I0216 17:25:39.761353 29927 net.cpp:156] Setting up loss
…
I0216 17:25:39.761869 29927 solver.cpp:186] Creating test net (#0) specified by test_net file: val.prototxt
I0216 17:25:39.762034 29927 net.cpp:50] Initializing net from parameters: 
name: "FCN"
force_backward: true
state {
  phase: TEST
}
layer {
  name: "data"
  type: "Data"
  top: "data"
  transform_param {
    mirror: false
    crop_size: 0
    mean_value: 0
  }
  data_param {
    source: "db/val/images"
    batch_size: 1
    backend: LMDB
  }
}
layer {
  name: "label"
  type: "Data"
  top: "label"
  data_param {
    source: "db/val/labels"
    batch_size: 1
    backend: LMDB
  }
}
layer {
  name: "conv1"
  type: "Convolution"
  bottom: "data"
  top: "conv1"
  param {
    lr_mult: 1
    decay_mult: 1
  }
  param {
    lr_mult: 2
    decay_mult: 0
  }
  convolution_param {
    num_output: 100
    pad: 50
    kernel_size: 5
    group: 1
    stride: 2
    weight_filler {
      type: "gaussian"
      mean: 0
      std: 0.01
    }
    bias_filler {
      type: "constant"
      value: 0.1
    }
  }
}
layer {
  name: "relu1"
  type: "ReLU"
  bottom: "conv1"
  top: "conv1"
}
layer {
  name: "pool1"
  type: "Pooling"
  bottom: "conv1"
  top: "pool1"
  pooling_param {
    pool: MAX
    kernel_size: 2
    stride: 2
  }
}
layer {
  name: "conv2"
  type: "Convolution"
  bottom: "pool1"
  top: "conv2"
  param {
    lr_mult: 1
    decay_mult: 1
  }
  param {
    lr_mult: 2
    decay_mult: 0
  }
  convolution_param {
    num_output: 200
    pad: 0
    kernel_size: 5
    group: 1
    stride: 2
    weight_filler {
      type: "gaussian"
      mean: 0
      std: 0.01
    }
    bias_filler {
      type: "constant"
      value: 0.1
    }
  }
}
layer {
  name: "relu2"
  type: "ReLU"
  bottom: "conv2"
  top: "conv2"
}
layer {
  name: "pool2"
  type: "Pooling"
  bottom: "conv2"
  top: "pool2"
  pooling_param {
    pool: MAX
    kernel_size: 2
    stride: 2
  }
}
layer {
  name: "conv3"
  type: "Convolution"
  bottom: "pool2"
  top: "conv3"
  param {
    lr_mult: 1
    decay_mult: 1
  }
  param {
    lr_mult: 2
    decay_mult: 0
  }
  convolution_param {
    num_output: 300
    pad: 0
    kernel_size: 3
    group: 1
    stride: 1
    weight_filler {
      type: "gaussian"
      mean: 0
      std: 0.01
    }
    bias_filler {
      type: "constant"
      value: 0.1
    }
  }
}
layer {
  name: "relu3"
  type: "ReLU"
  bottom: "conv3"
  top: "conv3"
}
layer {
  name: "conv4"
  type: "Convolution"
  bottom: "conv3"
  top: "conv4"
  param {
    lr_mult: 1
    decay_mult: 1
  }
  param {
    lr_mult: 2
    decay_mult: 0
  }
  convolution_param {
    num_output: 300
    pad: 0
    kernel_size: 3
    group: 1
    stride: 1
    weight_filler {
      type: "gaussian"
      mean: 0
      std: 0.01
    }
    bias_filler {
      type: "constant"
      value: 0.1
    }
  }
}
layer {
  name: "relu4"
  type: "ReLU"
  bottom: "conv4"
  top: "conv4"
}
layer {
  name: "drop"
  type: "Dropout"
  bottom: "conv4"
  top: "conv4"
  dropout_param {
    dropout_ratio: 0.1
  }
}
layer {
  name: "score_classes"
  type: "Convolution"
  bottom: "conv4"
  top: "score_classes"
  param {
    lr_mult: 1
    decay_mult: 1
  }
  param {
    lr_mult: 2
    decay_mult: 0
  }
  convolution_param {
    num_output: 2
    pad: 0
    kernel_size: 1
    group: 1
    stride: 1
    weight_filler {
      type: "gaussian"
      mean: 0
      std: 0.01
    }
    bias_filler {
      type: "constant"
      value: 0.1
    }
  }
}
layer {
  name: "upscore"
  type: "Deconvolution"
  bottom: "score_classes"
  top: "upscore"
  param {
    lr_mult: 1
    decay_mult: 1
  }
  param {
    lr_mult: 2
    decay_mult: 0
  }
  convolution_param {
    num_output: 2
    bias_term: true
    pad: 8
    kernel_size: 31
    stride: 16
    weight_filler {
      type: "bilinear"
    }
    bias_filler {
      type: "constant"
      value: 0.1
    }
  }
}
layer {
  name: "score"
  type: "Crop"
  bottom: "upscore"
  bottom: "data"
  top: "score"
}
layer {
  name: "loss"
  type: "SoftmaxWithLoss"
  bottom: "score"
  bottom: "label"
  top: "loss"
  loss_param {
    normalize: true
  }
}
layer {
  name: "accuracy"
  type: "Accuracy"
  bottom: "score"
  bottom: "label"
  top: "accuracy"
}
I0216 17:25:39.762152 29927 layer_factory.hpp:76] Creating layer data
I0216 17:25:39.762342 29927 net.cpp:111] Creating Layer data
I0216 17:25:39.762352 29927 net.cpp:434] data -> data
I0216 17:25:39.762992 29938 db_lmdb.cpp:22] Opened lmdb db/val/images
I0216 17:25:39.763092 29927 data_layer.cpp:44] output data size: 1,1,286,286
I0216 17:25:39.763746 29927 net.cpp:156] Setting up data
I0216 17:25:39.763758 29927 net.cpp:164] Top shape: 1 1 286 286 (81796)
I0216 17:25:39.763767 29927 layer_factory.hpp:76] Creating layer data_data_0_split
I0216 17:25:39.763777 29927 net.cpp:111] Creating Layer data_data_0_split
I0216 17:25:39.763783 29927 net.cpp:478] data_data_0_split <- data
I0216 17:25:39.763794 29927 net.cpp:434] data_data_0_split -> data_data_0_split_0
I0216 17:25:39.763804 29927 net.cpp:434] data_data_0_split -> data_data_0_split_1
I0216 17:25:39.763816 29927 net.cpp:156] Setting up data_data_0_split
I0216 17:25:39.763828 29927 net.cpp:164] Top shape: 1 1 286 286 (81796)
I0216 17:25:39.763835 29927 net.cpp:164] Top shape: 1 1 286 286 (81796)
I0216 17:25:39.763841 29927 layer_factory.hpp:76] Creating layer label
I0216 17:25:39.763882 29927 net.cpp:111] Creating Layer label
I0216 17:25:39.763891 29927 net.cpp:434] label -> label
I0216 17:25:39.764870 29940 db_lmdb.cpp:22] Opened lmdb db/val/labels
I0216 17:25:39.765036 29927 data_layer.cpp:44] output data size: 1,1,286,286
I0216 17:25:39.765789 29927 net.cpp:156] Setting up label
I0216 17:25:39.765802 29927 net.cpp:164] Top shape: 1 1 286 286 (81796)
I0216 17:25:39.765810 29927 layer_factory.hpp:76] Creating layer label_label_0_split
I0216 17:25:39.765820 29927 net.cpp:111] Creating Layer label_label_0_split
I0216 17:25:39.765827 29927 net.cpp:478] label_label_0_split <- label
I0216 17:25:39.765836 29927 net.cpp:434] label_label_0_split -> label_label_0_split_0
I0216 17:25:39.765847 29927 net.cpp:434] label_label_0_split -> label_label_0_split_1
I0216 17:25:39.765858 29927 net.cpp:156] Setting up label_label_0_split
I0216 17:25:39.765869 29927 net.cpp:164] Top shape: 1 1 286 286 (81796)
I0216 17:25:39.765877 29927 net.cpp:164] Top shape: 1 1 286 286 (81796)
I0216 17:25:39.765883 29927 layer_factory.hpp:76] Creating layer conv1
I0216 17:25:39.765895 29927 net.cpp:111] Creating Layer conv1
I0216 17:25:39.765902 29927 net.cpp:478] conv1 <- data_data_0_split_0
I0216 17:25:39.765913 29927 net.cpp:434] conv1 -> conv1
I0216 17:25:39.766940 29927 net.cpp:156] Setting up conv1
I0216 17:25:39.766953 29927 net.cpp:164] Top shape: 1 100 191 191 (3648100)
I0216 17:25:39.766969 29927 layer_factory.hpp:76] Creating layer relu1
I0216 17:25:39.766981 29927 net.cpp:111] Creating Layer relu1
I0216 17:25:39.766988 29927 net.cpp:478] relu1 <- conv1
I0216 17:25:39.766998 29927 net.cpp:420] relu1 -> conv1 (in-place)
I0216 17:25:39.767233 29927 net.cpp:156] Setting up relu1
I0216 17:25:39.767244 29927 net.cpp:164] Top shape: 1 100 191 191 (3648100)
I0216 17:25:39.767252 29927 layer_factory.hpp:76] Creating layer pool1
I0216 17:25:39.767264 29927 net.cpp:111] Creating Layer pool1
I0216 17:25:39.767271 29927 net.cpp:478] pool1 <- conv1
I0216 17:25:39.767279 29927 net.cpp:434] pool1 -> pool1
I0216 17:25:39.767418 29927 net.cpp:156] Setting up pool1
I0216 17:25:39.767431 29927 net.cpp:164] Top shape: 1 100 96 96 (921600)
I0216 17:25:39.767437 29927 layer_factory.hpp:76] Creating layer conv2
I0216 17:25:39.767449 29927 net.cpp:111] Creating Layer conv2
I0216 17:25:39.767457 29927 net.cpp:478] conv2 <- pool1
I0216 17:25:39.767468 29927 net.cpp:434] conv2 -> conv2
I0216 17:25:39.773707 29927 net.cpp:156] Setting up conv2
I0216 17:25:39.773722 29927 net.cpp:164] Top shape: 1 200 46 46 (423200)
I0216 17:25:39.773738 29927 layer_factory.hpp:76] Creating layer relu2
I0216 17:25:39.773749 29927 net.cpp:111] Creating Layer relu2
I0216 17:25:39.773756 29927 net.cpp:478] relu2 <- conv2
I0216 17:25:39.773766 29927 net.cpp:420] relu2 -> conv2 (in-place)
I0216 17:25:39.773905 29927 net.cpp:156] Setting up relu2
I0216 17:25:39.773916 29927 net.cpp:164] Top shape: 1 200 46 46 (423200)
I0216 17:25:39.773923 29927 layer_factory.hpp:76] Creating layer pool2
I0216 17:25:39.773933 29927 net.cpp:111] Creating Layer pool2
I0216 17:25:39.773939 29927 net.cpp:478] pool2 <- conv2
I0216 17:25:39.773957 29927 net.cpp:434] pool2 -> pool2
I0216 17:25:39.774235 29927 net.cpp:156] Setting up pool2
I0216 17:25:39.774255 29927 net.cpp:164] Top shape: 1 200 23 23 (105800)
I0216 17:25:39.774262 29927 layer_factory.hpp:76] Creating layer conv3
I0216 17:25:39.774274 29927 net.cpp:111] Creating Layer conv3
I0216 17:25:39.774281 29927 net.cpp:478] conv3 <- pool2
I0216 17:25:39.774291 29927 net.cpp:434] conv3 -> conv3
I0216 17:25:39.780855 29927 net.cpp:156] Setting up conv3
I0216 17:25:39.780869 29927 net.cpp:164] Top shape: 1 300 21 21 (132300)
I0216 17:25:39.780882 29927 layer_factory.hpp:76] Creating layer relu3
I0216 17:25:39.780891 29927 net.cpp:111] Creating Layer relu3
I0216 17:25:39.780899 29927 net.cpp:478] relu3 <- conv3
I0216 17:25:39.780917 29927 net.cpp:420] relu3 -> conv3 (in-place)
I0216 17:25:39.781054 29927 net.cpp:156] Setting up relu3
I0216 17:25:39.781064 29927 net.cpp:164] Top shape: 1 300 21 21 (132300)
I0216 17:25:39.781071 29927 layer_factory.hpp:76] Creating layer conv4
I0216 17:25:39.781083 29927 net.cpp:111] Creating Layer conv4
I0216 17:25:39.781090 29927 net.cpp:478] conv4 <- conv3
I0216 17:25:39.781101 29927 net.cpp:434] conv4 -> conv4
I0216 17:25:39.790397 29927 net.cpp:156] Setting up conv4
I0216 17:25:39.790412 29927 net.cpp:164] Top shape: 1 300 19 19 (108300)
I0216 17:25:39.790423 29927 layer_factory.hpp:76] Creating layer relu4
I0216 17:25:39.790432 29927 net.cpp:111] Creating Layer relu4
I0216 17:25:39.790439 29927 net.cpp:478] relu4 <- conv4
I0216 17:25:39.790458 29927 net.cpp:420] relu4 -> conv4 (in-place)
I0216 17:25:39.790678 29927 net.cpp:156] Setting up relu4
I0216 17:25:39.790698 29927 net.cpp:164] Top shape: 1 300 19 19 (108300)
I0216 17:25:39.790704 29927 layer_factory.hpp:76] Creating layer drop
I0216 17:25:39.790714 29927 net.cpp:111] Creating Layer drop
I0216 17:25:39.790720 29927 net.cpp:478] drop <- conv4
I0216 17:25:39.790730 29927 net.cpp:420] drop -> conv4 (in-place)
I0216 17:25:39.790742 29927 net.cpp:156] Setting up drop
I0216 17:25:39.790750 29927 net.cpp:164] Top shape: 1 300 19 19 (108300)
I0216 17:25:39.790756 29927 layer_factory.hpp:76] Creating layer score_classes
I0216 17:25:39.790766 29927 net.cpp:111] Creating Layer score_classes
I0216 17:25:39.790771 29927 net.cpp:478] score_classes <- conv4
I0216 17:25:39.790782 29927 net.cpp:434] score_classes -> score_classes
I0216 17:25:39.791380 29927 net.cpp:156] Setting up score_classes
I0216 17:25:39.791393 29927 net.cpp:164] Top shape: 1 2 19 19 (722)
I0216 17:25:39.791407 29927 layer_factory.hpp:76] Creating layer upscore
I0216 17:25:39.791422 29927 net.cpp:111] Creating Layer upscore
I0216 17:25:39.791437 29927 net.cpp:478] upscore <- score_classes
I0216 17:25:39.791447 29927 net.cpp:434] upscore -> upscore
I0216 17:25:39.791926 29927 net.cpp:156] Setting up upscore
I0216 17:25:39.791939 29927 net.cpp:164] Top shape: 1 2 303 303 (183618)
I0216 17:25:39.791950 29927 layer_factory.hpp:76] Creating layer score
I0216 17:25:39.791960 29927 net.cpp:111] Creating Layer score
I0216 17:25:39.791966 29927 net.cpp:478] score <- upscore
I0216 17:25:39.791973 29927 net.cpp:478] score <- data_data_0_split_1
I0216 17:25:39.791985 29927 net.cpp:434] score -> score
I0216 17:25:39.792017 29927 net.cpp:156] Setting up score
I0216 17:25:39.792026 29927 net.cpp:164] Top shape: 1 2 286 286 (163592)
I0216 17:25:39.792033 29927 layer_factory.hpp:76] Creating layer score_score_0_split
I0216 17:25:39.792044 29927 net.cpp:111] Creating Layer score_score_0_split
I0216 17:25:39.792052 29927 net.cpp:478] score_score_0_split <- score
I0216 17:25:39.792059 29927 net.cpp:434] score_score_0_split -> score_score_0_split_0
I0216 17:25:39.792069 29927 net.cpp:434] score_score_0_split -> score_score_0_split_1
I0216 17:25:39.792083 29927 net.cpp:156] Setting up score_score_0_split
I0216 17:25:39.792090 29927 net.cpp:164] Top shape: 1 2 286 286 (163592)
I0216 17:25:39.792099 29927 net.cpp:164] Top shape: 1 2 286 286 (163592)
I0216 17:25:39.792105 29927 layer_factory.hpp:76] Creating layer loss
I0216 17:25:39.792114 29927 net.cpp:111] Creating Layer loss
I0216 17:25:39.792120 29927 net.cpp:478] loss <- score_score_0_split_0
I0216 17:25:39.792127 29927 net.cpp:478] loss <- label_label_0_split_0
I0216 17:25:39.792137 29927 net.cpp:434] loss -> loss
I0216 17:25:39.792150 29927 layer_factory.hpp:76] Creating layer loss
…
