…
I0217 12:01:47.117563 22888 solver.cpp:86] Creating training net from train_net file: train.prototxt
I0217 12:01:47.144467 22888 net.cpp:50] Initializing net from parameters: 
name: "FCN"
force_backward: true
state {
  phase: TRAIN
}
layer {
  name: "data"
  type: "Data"
  top: "data"
  transform_param {
    mirror: false
    crop_size: 0
    mean_value: 0
  }
  data_param {
    source: "db/train/images"
    batch_size: 1
    backend: LMDB
  }
}
layer {
  name: "label"
  type: "Data"
  top: "label"
  data_param {
    source: "db/train/labels"
    batch_size: 1
    backend: LMDB
  }
}
layer {
  name: "conv1"
  type: "Convolution"
  bottom: "data"
  top: "conv1"
  param {
    lr_mult: 1
    decay_mult: 1
  }
  param {
    lr_mult: 2
    decay_mult: 0
  }
  convolution_param {
    num_output: 100
    pad: 50
    kernel_size: 5
    group: 1
    stride: 2
    weight_filler {
      type: "gaussian"
      mean: 0
      std: 0.01
    }
    bias_filler {
      type: "constant"
      value: 0.1
    }
  }
}
layer {
  name: "relu1"
  type: "ReLU"
  bottom: "conv1"
  top: "conv1"
}
layer {
  name: "pool1"
  type: "Pooling"
  bottom: "conv1"
  top: "pool1"
  pooling_param {
    pool: MAX
    kernel_size: 2
    stride: 2
  }
}
layer {
  name: "conv2"
  type: "Convolution"
  bottom: "pool1"
  top: "conv2"
  param {
    lr_mult: 1
    decay_mult: 1
  }
  param {
    lr_mult: 2
    decay_mult: 0
  }
  convolution_param {
    num_output: 200
    pad: 0
    kernel_size: 5
    group: 1
    stride: 2
    weight_filler {
      type: "gaussian"
      mean: 0
      std: 0.01
    }
    bias_filler {
      type: "constant"
      value: 0.1
    }
  }
}
layer {
  name: "relu2"
  type: "ReLU"
  bottom: "conv2"
  top: "conv2"
}
layer {
  name: "pool2"
  type: "Pooling"
  bottom: "conv2"
  top: "pool2"
  pooling_param {
    pool: MAX
    kernel_size: 2
    stride: 2
  }
}
layer {
  name: "conv3"
  type: "Convolution"
  bottom: "pool2"
  top: "conv3"
  param {
    lr_mult: 1
    decay_mult: 1
  }
  param {
    lr_mult: 2
    decay_mult: 0
  }
  convolution_param {
    num_output: 300
    pad: 0
    kernel_size: 3
    group: 1
    stride: 1
    weight_filler {
      type: "gaussian"
      mean: 0
      std: 0.01
    }
    bias_filler {
      type: "constant"
      value: 0.1
    }
  }
}
layer {
  name: "relu3"
  type: "ReLU"
  bottom: "conv3"
  top: "conv3"
}
layer {
  name: "conv4"
  type: "Convolution"
  bottom: "conv3"
  top: "conv4"
  param {
    lr_mult: 1
    decay_mult: 1
  }
  param {
    lr_mult: 2
    decay_mult: 0
  }
  convolution_param {
    num_output: 300
    pad: 0
    kernel_size: 3
    group: 1
    stride: 1
    weight_filler {
      type: "gaussian"
      mean: 0
      std: 0.01
    }
    bias_filler {
      type: "constant"
      value: 0.1
    }
  }
}
layer {
  name: "relu4"
  type: "ReLU"
  bottom: "conv4"
  top: "conv4"
}
layer {
  name: "drop"
  type: "Dropout"
  bottom: "conv4"
  top: "conv4"
  dropout_param {
    dropout_ratio: 0.1
  }
}
layer {
  name: "score_classes"
  type: "Convolution"
  bottom: "conv4"
  top: "score_classes"
  param {
    lr_mult: 1
    decay_mult: 1
  }
  param {
    lr_mult: 2
    decay_mult: 0
  }
  convolution_param {
    num_output: 2
    pad: 0
    kernel_size: 1
    group: 1
    stride: 1
    weight_filler {
      type: "gaussian"
      mean: 0
      std: 0.01
    }
    bias_filler {
      type: "constant"
      value: 0.1
    }
  }
}
layer {
  name: "upscore"
  type: "Deconvolution"
  bottom: "score_classes"
  top: "upscore"
  param {
    lr_mult: 1
    decay_mult: 1
  }
  param {
    lr_mult: 2
    decay_mult: 0
  }
  convolution_param {
    num_output: 2
    bias_term: true
    pad: 8
    kernel_size: 31
    stride: 16
    weight_filler {
      type: "bilinear"
    }
    bias_filler {
      type: "constant"
      value: 0.1
    }
  }
}
layer {
  name: "score"
  type: "Crop"
  bottom: "upscore"
  bottom: "data"
  top: "score"
}
layer {
  name: "loss"
  type: "SoftmaxWithLoss"
  bottom: "score"
  bottom: "label"
  top: "loss"
  loss_param {
    normalize: true
  }
}
I0217 12:01:47.144606 22888 layer_factory.hpp:76] Creating layer data
I0217 12:01:47.144696 22888 net.cpp:111] Creating Layer data
I0217 12:01:47.144706 22888 net.cpp:434] data -> data
I0217 12:01:47.145481 22895 db_lmdb.cpp:22] Opened lmdb db/train/images
I0217 12:01:47.150248 22888 data_layer.cpp:44] output data size: 1,1,193,257
I0217 12:01:47.263667 22888 net.cpp:156] Setting up data
I0217 12:01:47.268367 22888 net.cpp:164] Top shape: 1 1 193 257 (49601)
I0217 12:01:47.268393 22888 layer_factory.hpp:76] Creating layer data_data_0_split
I0217 12:01:47.295233 22888 net.cpp:111] Creating Layer data_data_0_split
I0217 12:01:47.295260 22888 net.cpp:478] data_data_0_split <- data
I0217 12:01:47.295275 22888 net.cpp:434] data_data_0_split -> data_data_0_split_0
I0217 12:01:47.295289 22888 net.cpp:434] data_data_0_split -> data_data_0_split_1
I0217 12:01:47.295306 22888 net.cpp:156] Setting up data_data_0_split
I0217 12:01:47.295315 22888 net.cpp:164] Top shape: 1 1 193 257 (49601)
I0217 12:01:47.295322 22888 net.cpp:164] Top shape: 1 1 193 257 (49601)
I0217 12:01:47.295327 22888 layer_factory.hpp:76] Creating layer label
I0217 12:01:47.295414 22888 net.cpp:111] Creating Layer label
I0217 12:01:47.295434 22888 net.cpp:434] label -> label
I0217 12:01:47.296090 22897 db_lmdb.cpp:22] Opened lmdb db/train/labels
I0217 12:01:47.296175 22888 data_layer.cpp:44] output data size: 1,1,193,257
I0217 12:01:47.297128 22888 net.cpp:156] Setting up label
I0217 12:01:47.297149 22888 net.cpp:164] Top shape: 1 1 193 257 (49601)
I0217 12:01:47.297158 22888 layer_factory.hpp:76] Creating layer conv1
I0217 12:01:47.297173 22888 net.cpp:111] Creating Layer conv1
I0217 12:01:47.297178 22888 net.cpp:478] conv1 <- data_data_0_split_0
I0217 12:01:47.297200 22888 net.cpp:434] conv1 -> conv1
I0217 12:01:48.426892 22888 net.cpp:156] Setting up conv1
I0217 12:01:48.426924 22888 net.cpp:164] Top shape: 1 100 145 177 (2566500)
I0217 12:01:48.426952 22888 layer_factory.hpp:76] Creating layer relu1
I0217 12:01:48.426964 22888 net.cpp:111] Creating Layer relu1
I0217 12:01:48.426969 22888 net.cpp:478] relu1 <- conv1
I0217 12:01:48.426975 22888 net.cpp:420] relu1 -> conv1 (in-place)
I0217 12:01:48.427193 22888 net.cpp:156] Setting up relu1
I0217 12:01:48.427203 22888 net.cpp:164] Top shape: 1 100 145 177 (2566500)
I0217 12:01:48.427207 22888 layer_factory.hpp:76] Creating layer pool1
I0217 12:01:48.427217 22888 net.cpp:111] Creating Layer pool1
I0217 12:01:48.427219 22888 net.cpp:478] pool1 <- conv1
I0217 12:01:48.427224 22888 net.cpp:434] pool1 -> pool1
I0217 12:01:48.439435 22888 net.cpp:156] Setting up pool1
I0217 12:01:48.439465 22888 net.cpp:164] Top shape: 1 100 73 89 (649700)
I0217 12:01:48.439471 22888 layer_factory.hpp:76] Creating layer conv2
I0217 12:01:48.439491 22888 net.cpp:111] Creating Layer conv2
I0217 12:01:48.439496 22888 net.cpp:478] conv2 <- pool1
I0217 12:01:48.439502 22888 net.cpp:434] conv2 -> conv2
I0217 12:01:48.445962 22888 net.cpp:156] Setting up conv2
I0217 12:01:48.445991 22888 net.cpp:164] Top shape: 1 200 35 43 (301000)
I0217 12:01:48.446005 22888 layer_factory.hpp:76] Creating layer relu2
I0217 12:01:48.446023 22888 net.cpp:111] Creating Layer relu2
I0217 12:01:48.446027 22888 net.cpp:478] relu2 <- conv2
I0217 12:01:48.446034 22888 net.cpp:420] relu2 -> conv2 (in-place)
I0217 12:01:48.446259 22888 net.cpp:156] Setting up relu2
I0217 12:01:48.446269 22888 net.cpp:164] Top shape: 1 200 35 43 (301000)
I0217 12:01:48.446274 22888 layer_factory.hpp:76] Creating layer pool2
I0217 12:01:48.446281 22888 net.cpp:111] Creating Layer pool2
I0217 12:01:48.446285 22888 net.cpp:478] pool2 <- conv2
I0217 12:01:48.446290 22888 net.cpp:434] pool2 -> pool2
I0217 12:01:48.446440 22888 net.cpp:156] Setting up pool2
I0217 12:01:48.446457 22888 net.cpp:164] Top shape: 1 200 18 22 (79200)
I0217 12:01:48.446462 22888 layer_factory.hpp:76] Creating layer conv3
I0217 12:01:48.446470 22888 net.cpp:111] Creating Layer conv3
I0217 12:01:48.446472 22888 net.cpp:478] conv3 <- pool2
I0217 12:01:48.446478 22888 net.cpp:434] conv3 -> conv3
I0217 12:01:48.453586 22888 net.cpp:156] Setting up conv3
I0217 12:01:48.453615 22888 net.cpp:164] Top shape: 1 300 16 20 (96000)
I0217 12:01:48.453632 22888 layer_factory.hpp:76] Creating layer relu3
I0217 12:01:48.453650 22888 net.cpp:111] Creating Layer relu3
I0217 12:01:48.453655 22888 net.cpp:478] relu3 <- conv3
I0217 12:01:48.453662 22888 net.cpp:420] relu3 -> conv3 (in-place)
I0217 12:01:48.453816 22888 net.cpp:156] Setting up relu3
I0217 12:01:48.453824 22888 net.cpp:164] Top shape: 1 300 16 20 (96000)
I0217 12:01:48.453829 22888 layer_factory.hpp:76] Creating layer conv4
I0217 12:01:48.453836 22888 net.cpp:111] Creating Layer conv4
I0217 12:01:48.453840 22888 net.cpp:478] conv4 <- conv3
I0217 12:01:48.453845 22888 net.cpp:434] conv4 -> conv4
I0217 12:01:48.463594 22888 net.cpp:156] Setting up conv4
I0217 12:01:48.463623 22888 net.cpp:164] Top shape: 1 300 14 18 (75600)
I0217 12:01:48.463632 22888 layer_factory.hpp:76] Creating layer relu4
I0217 12:01:48.463651 22888 net.cpp:111] Creating Layer relu4
I0217 12:01:48.463656 22888 net.cpp:478] relu4 <- conv4
I0217 12:01:48.463667 22888 net.cpp:420] relu4 -> conv4 (in-place)
I0217 12:01:48.463897 22888 net.cpp:156] Setting up relu4
I0217 12:01:48.463907 22888 net.cpp:164] Top shape: 1 300 14 18 (75600)
I0217 12:01:48.463910 22888 layer_factory.hpp:76] Creating layer drop
I0217 12:01:48.463917 22888 net.cpp:111] Creating Layer drop
I0217 12:01:48.463918 22888 net.cpp:478] drop <- conv4
I0217 12:01:48.463924 22888 net.cpp:420] drop -> conv4 (in-place)
I0217 12:01:48.463943 22888 net.cpp:156] Setting up drop
I0217 12:01:48.463948 22888 net.cpp:164] Top shape: 1 300 14 18 (75600)
I0217 12:01:48.463951 22888 layer_factory.hpp:76] Creating layer score_classes
I0217 12:01:48.463958 22888 net.cpp:111] Creating Layer score_classes
I0217 12:01:48.463961 22888 net.cpp:478] score_classes <- conv4
I0217 12:01:48.463968 22888 net.cpp:434] score_classes -> score_classes
I0217 12:01:48.464591 22888 net.cpp:156] Setting up score_classes
I0217 12:01:48.464601 22888 net.cpp:164] Top shape: 1 2 14 18 (504)
I0217 12:01:48.464612 22888 layer_factory.hpp:76] Creating layer upscore
I0217 12:01:48.464618 22888 net.cpp:111] Creating Layer upscore
I0217 12:01:48.464622 22888 net.cpp:478] upscore <- score_classes
I0217 12:01:48.464627 22888 net.cpp:434] upscore -> upscore
I0217 12:01:48.464844 22888 net.cpp:156] Setting up upscore
I0217 12:01:48.464854 22888 net.cpp:164] Top shape: 1 2 223 287 (128002)
I0217 12:01:48.464859 22888 layer_factory.hpp:76] Creating layer score
I0217 12:01:48.465335 22888 net.cpp:111] Creating Layer score
I0217 12:01:48.465348 22888 net.cpp:478] score <- upscore
I0217 12:01:48.465355 22888 net.cpp:478] score <- data_data_0_split_1
I0217 12:01:48.465364 22888 net.cpp:434] score -> score
I0217 12:01:48.465409 22888 net.cpp:156] Setting up score
I0217 12:01:48.465415 22888 net.cpp:164] Top shape: 1 2 193 257 (99202)
I0217 12:01:48.465420 22888 layer_factory.hpp:76] Creating layer loss
I0217 12:01:48.465427 22888 net.cpp:111] Creating Layer loss
I0217 12:01:48.465431 22888 net.cpp:478] loss <- score
I0217 12:01:48.465435 22888 net.cpp:478] loss <- label
I0217 12:01:48.465440 22888 net.cpp:434] loss -> loss
I0217 12:01:48.465452 22888 layer_factory.hpp:76] Creating layer loss
I0217 12:01:48.466034 22888 net.cpp:156] Setting up loss
…
I0217 12:01:48.479800 22888 solver.cpp:186] Creating test net (#0) specified by test_net file: val.prototxt
I0217 12:01:48.479996 22888 net.cpp:50] Initializing net from parameters: 
name: "FCN"
force_backward: true
state {
  phase: TEST
}
layer {
  name: "data"
  type: "Data"
  top: "data"
  transform_param {
    mirror: false
    crop_size: 0
    mean_value: 0
  }
  data_param {
    source: "db/val/images"
    batch_size: 1
    backend: LMDB
  }
}
layer {
  name: "label"
  type: "Data"
  top: "label"
  data_param {
    source: "db/val/labels"
    batch_size: 1
    backend: LMDB
  }
}
layer {
  name: "conv1"
  type: "Convolution"
  bottom: "data"
  top: "conv1"
  param {
    lr_mult: 1
    decay_mult: 1
  }
  param {
    lr_mult: 2
    decay_mult: 0
  }
  convolution_param {
    num_output: 100
    pad: 50
    kernel_size: 5
    group: 1
    stride: 2
    weight_filler {
      type: "gaussian"
      mean: 0
      std: 0.01
    }
    bias_filler {
      type: "constant"
      value: 0.1
    }
  }
}
layer {
  name: "relu1"
  type: "ReLU"
  bottom: "conv1"
  top: "conv1"
}
layer {
  name: "pool1"
  type: "Pooling"
  bottom: "conv1"
  top: "pool1"
  pooling_param {
    pool: MAX
    kernel_size: 2
    stride: 2
  }
}
layer {
  name: "conv2"
  type: "Convolution"
  bottom: "pool1"
  top: "conv2"
  param {
    lr_mult: 1
    decay_mult: 1
  }
  param {
    lr_mult: 2
    decay_mult: 0
  }
  convolution_param {
    num_output: 200
    pad: 0
    kernel_size: 5
    group: 1
    stride: 2
    weight_filler {
      type: "gaussian"
      mean: 0
      std: 0.01
    }
    bias_filler {
      type: "constant"
      value: 0.1
    }
  }
}
layer {
  name: "relu2"
  type: "ReLU"
  bottom: "conv2"
  top: "conv2"
}
layer {
  name: "pool2"
  type: "Pooling"
  bottom: "conv2"
  top: "pool2"
  pooling_param {
    pool: MAX
    kernel_size: 2
    stride: 2
  }
}
layer {
  name: "conv3"
  type: "Convolution"
  bottom: "pool2"
  top: "conv3"
  param {
    lr_mult: 1
    decay_mult: 1
  }
  param {
    lr_mult: 2
    decay_mult: 0
  }
  convolution_param {
    num_output: 300
    pad: 0
    kernel_size: 3
    group: 1
    stride: 1
    weight_filler {
      type: "gaussian"
      mean: 0
      std: 0.01
    }
    bias_filler {
      type: "constant"
      value: 0.1
    }
  }
}
layer {
  name: "relu3"
  type: "ReLU"
  bottom: "conv3"
  top: "conv3"
}
layer {
  name: "conv4"
  type: "Convolution"
  bottom: "conv3"
  top: "conv4"
  param {
    lr_mult: 1
    decay_mult: 1
  }
  param {
    lr_mult: 2
    decay_mult: 0
  }
  convolution_param {
    num_output: 300
    pad: 0
    kernel_size: 3
    group: 1
    stride: 1
    weight_filler {
      type: "gaussian"
      mean: 0
      std: 0.01
    }
    bias_filler {
      type: "constant"
      value: 0.1
    }
  }
}
layer {
  name: "relu4"
  type: "ReLU"
  bottom: "conv4"
  top: "conv4"
}
layer {
  name: "drop"
  type: "Dropout"
  bottom: "conv4"
  top: "conv4"
  dropout_param {
    dropout_ratio: 0.1
  }
}
layer {
  name: "score_classes"
  type: "Convolution"
  bottom: "conv4"
  top: "score_classes"
  param {
    lr_mult: 1
    decay_mult: 1
  }
  param {
    lr_mult: 2
    decay_mult: 0
  }
  convolution_param {
    num_output: 2
    pad: 0
    kernel_size: 1
    group: 1
    stride: 1
    weight_filler {
      type: "gaussian"
      mean: 0
      std: 0.01
    }
    bias_filler {
      type: "constant"
      value: 0.1
    }
  }
}
layer {
  name: "upscore"
  type: "Deconvolution"
  bottom: "score_classes"
  top: "upscore"
  param {
    lr_mult: 1
    decay_mult: 1
  }
  param {
    lr_mult: 2
    decay_mult: 0
  }
  convolution_param {
    num_output: 2
    bias_term: true
    pad: 8
    kernel_size: 31
    stride: 16
    weight_filler {
      type: "bilinear"
    }
    bias_filler {
      type: "constant"
      value: 0.1
    }
  }
}
layer {
  name: "score"
  type: "Crop"
  bottom: "upscore"
  bottom: "data"
  top: "score"
}
layer {
  name: "loss"
  type: "SoftmaxWithLoss"
  bottom: "score"
  bottom: "label"
  top: "loss"
  loss_param {
    normalize: true
  }
}
layer {
  name: "accuracy"
  type: "Accuracy"
  bottom: "score"
  bottom: "label"
  top: "accuracy"
}
I0217 12:01:48.480095 22888 layer_factory.hpp:76] Creating layer data
I0217 12:01:48.480160 22888 net.cpp:111] Creating Layer data
I0217 12:01:48.480168 22888 net.cpp:434] data -> data
I0217 12:01:48.480911 22901 db_lmdb.cpp:22] Opened lmdb db/val/images
I0217 12:01:48.481024 22888 data_layer.cpp:44] output data size: 1,1,182,243
I0217 12:01:48.481675 22888 net.cpp:156] Setting up data
I0217 12:01:48.481688 22888 net.cpp:164] Top shape: 1 1 182 243 (44226)
I0217 12:01:48.481693 22888 layer_factory.hpp:76] Creating layer data_data_0_split
I0217 12:01:48.481711 22888 net.cpp:111] Creating Layer data_data_0_split
I0217 12:01:48.481715 22888 net.cpp:478] data_data_0_split <- data
I0217 12:01:48.481721 22888 net.cpp:434] data_data_0_split -> data_data_0_split_0
I0217 12:01:48.481729 22888 net.cpp:434] data_data_0_split -> data_data_0_split_1
I0217 12:01:48.481735 22888 net.cpp:156] Setting up data_data_0_split
I0217 12:01:48.481740 22888 net.cpp:164] Top shape: 1 1 182 243 (44226)
I0217 12:01:48.481745 22888 net.cpp:164] Top shape: 1 1 182 243 (44226)
I0217 12:01:48.481747 22888 layer_factory.hpp:76] Creating layer label
I0217 12:01:48.481778 22888 net.cpp:111] Creating Layer label
I0217 12:01:48.481787 22888 net.cpp:434] label -> label
I0217 12:01:48.483158 22903 db_lmdb.cpp:22] Opened lmdb db/val/labels
I0217 12:01:48.483269 22888 data_layer.cpp:44] output data size: 1,1,182,243
I0217 12:01:48.483697 22888 net.cpp:156] Setting up label
I0217 12:01:48.483711 22888 net.cpp:164] Top shape: 1 1 182 243 (44226)
I0217 12:01:48.483721 22888 layer_factory.hpp:76] Creating layer label_label_0_split
I0217 12:01:48.483736 22888 net.cpp:111] Creating Layer label_label_0_split
I0217 12:01:48.483747 22888 net.cpp:478] label_label_0_split <- label
I0217 12:01:48.483759 22888 net.cpp:434] label_label_0_split -> label_label_0_split_0
I0217 12:01:48.483777 22888 net.cpp:434] label_label_0_split -> label_label_0_split_1
I0217 12:01:48.483791 22888 net.cpp:156] Setting up label_label_0_split
I0217 12:01:48.483801 22888 net.cpp:164] Top shape: 1 1 182 243 (44226)
I0217 12:01:48.483810 22888 net.cpp:164] Top shape: 1 1 182 243 (44226)
I0217 12:01:48.483816 22888 layer_factory.hpp:76] Creating layer conv1
I0217 12:01:48.483831 22888 net.cpp:111] Creating Layer conv1
I0217 12:01:48.483839 22888 net.cpp:478] conv1 <- data_data_0_split_0
I0217 12:01:48.483852 22888 net.cpp:434] conv1 -> conv1
I0217 12:01:48.485332 22888 net.cpp:156] Setting up conv1
I0217 12:01:48.485354 22888 net.cpp:164] Top shape: 1 100 139 170 (2363000)
I0217 12:01:48.485376 22888 layer_factory.hpp:76] Creating layer relu1
I0217 12:01:48.485389 22888 net.cpp:111] Creating Layer relu1
I0217 12:01:48.485396 22888 net.cpp:478] relu1 <- conv1
I0217 12:01:48.485405 22888 net.cpp:420] relu1 -> conv1 (in-place)
I0217 12:01:48.485684 22888 net.cpp:156] Setting up relu1
I0217 12:01:48.485699 22888 net.cpp:164] Top shape: 1 100 139 170 (2363000)
I0217 12:01:48.485707 22888 layer_factory.hpp:76] Creating layer pool1
I0217 12:01:48.485720 22888 net.cpp:111] Creating Layer pool1
I0217 12:01:48.485728 22888 net.cpp:478] pool1 <- conv1
I0217 12:01:48.485736 22888 net.cpp:434] pool1 -> pool1
I0217 12:01:48.485921 22888 net.cpp:156] Setting up pool1
I0217 12:01:48.485932 22888 net.cpp:164] Top shape: 1 100 70 85 (595000)
I0217 12:01:48.485940 22888 layer_factory.hpp:76] Creating layer conv2
I0217 12:01:48.485954 22888 net.cpp:111] Creating Layer conv2
I0217 12:01:48.485961 22888 net.cpp:478] conv2 <- pool1
I0217 12:01:48.485973 22888 net.cpp:434] conv2 -> conv2
I0217 12:01:48.492491 22888 net.cpp:156] Setting up conv2
I0217 12:01:48.492519 22888 net.cpp:164] Top shape: 1 200 33 41 (270600)
I0217 12:01:48.492538 22888 layer_factory.hpp:76] Creating layer relu2
I0217 12:01:48.492555 22888 net.cpp:111] Creating Layer relu2
I0217 12:01:48.492563 22888 net.cpp:478] relu2 <- conv2
I0217 12:01:48.492574 22888 net.cpp:420] relu2 -> conv2 (in-place)
I0217 12:01:48.492718 22888 net.cpp:156] Setting up relu2
I0217 12:01:48.492729 22888 net.cpp:164] Top shape: 1 200 33 41 (270600)
I0217 12:01:48.492736 22888 layer_factory.hpp:76] Creating layer pool2
I0217 12:01:48.492749 22888 net.cpp:111] Creating Layer pool2
I0217 12:01:48.492758 22888 net.cpp:478] pool2 <- conv2
I0217 12:01:48.492769 22888 net.cpp:434] pool2 -> pool2
I0217 12:01:48.492995 22888 net.cpp:156] Setting up pool2
I0217 12:01:48.493006 22888 net.cpp:164] Top shape: 1 200 17 21 (71400)
I0217 12:01:48.493015 22888 layer_factory.hpp:76] Creating layer conv3
I0217 12:01:48.493028 22888 net.cpp:111] Creating Layer conv3
I0217 12:01:48.493036 22888 net.cpp:478] conv3 <- pool2
I0217 12:01:48.493048 22888 net.cpp:434] conv3 -> conv3
I0217 12:01:48.500078 22888 net.cpp:156] Setting up conv3
I0217 12:01:48.500109 22888 net.cpp:164] Top shape: 1 300 15 19 (85500)
I0217 12:01:48.500128 22888 layer_factory.hpp:76] Creating layer relu3
I0217 12:01:48.500145 22888 net.cpp:111] Creating Layer relu3
I0217 12:01:48.500152 22888 net.cpp:478] relu3 <- conv3
I0217 12:01:48.500164 22888 net.cpp:420] relu3 -> conv3 (in-place)
I0217 12:01:48.500308 22888 net.cpp:156] Setting up relu3
I0217 12:01:48.500319 22888 net.cpp:164] Top shape: 1 300 15 19 (85500)
I0217 12:01:48.500326 22888 layer_factory.hpp:76] Creating layer conv4
I0217 12:01:48.500342 22888 net.cpp:111] Creating Layer conv4
I0217 12:01:48.500350 22888 net.cpp:478] conv4 <- conv3
I0217 12:01:48.500361 22888 net.cpp:434] conv4 -> conv4
I0217 12:01:48.510537 22888 net.cpp:156] Setting up conv4
I0217 12:01:48.510570 22888 net.cpp:164] Top shape: 1 300 13 17 (66300)
I0217 12:01:48.510586 22888 layer_factory.hpp:76] Creating layer relu4
I0217 12:01:48.510601 22888 net.cpp:111] Creating Layer relu4
I0217 12:01:48.510609 22888 net.cpp:478] relu4 <- conv4
I0217 12:01:48.510620 22888 net.cpp:420] relu4 -> conv4 (in-place)
I0217 12:01:48.510848 22888 net.cpp:156] Setting up relu4
I0217 12:01:48.510860 22888 net.cpp:164] Top shape: 1 300 13 17 (66300)
I0217 12:01:48.510867 22888 layer_factory.hpp:76] Creating layer drop
I0217 12:01:48.510881 22888 net.cpp:111] Creating Layer drop
I0217 12:01:48.510888 22888 net.cpp:478] drop <- conv4
I0217 12:01:48.510897 22888 net.cpp:420] drop -> conv4 (in-place)
I0217 12:01:48.510908 22888 net.cpp:156] Setting up drop
I0217 12:01:48.510917 22888 net.cpp:164] Top shape: 1 300 13 17 (66300)
I0217 12:01:48.510924 22888 layer_factory.hpp:76] Creating layer score_classes
I0217 12:01:48.510937 22888 net.cpp:111] Creating Layer score_classes
I0217 12:01:48.510944 22888 net.cpp:478] score_classes <- conv4
I0217 12:01:48.510957 22888 net.cpp:434] score_classes -> score_classes
I0217 12:01:48.511499 22888 net.cpp:156] Setting up score_classes
I0217 12:01:48.511512 22888 net.cpp:164] Top shape: 1 2 13 17 (442)
I0217 12:01:48.511528 22888 layer_factory.hpp:76] Creating layer upscore
I0217 12:01:48.511543 22888 net.cpp:111] Creating Layer upscore
I0217 12:01:48.511551 22888 net.cpp:478] upscore <- score_classes
I0217 12:01:48.511564 22888 net.cpp:434] upscore -> upscore
I0217 12:01:48.511773 22888 net.cpp:156] Setting up upscore
I0217 12:01:48.511785 22888 net.cpp:164] Top shape: 1 2 207 271 (112194)
I0217 12:01:48.511796 22888 layer_factory.hpp:76] Creating layer score
I0217 12:01:48.511806 22888 net.cpp:111] Creating Layer score
I0217 12:01:48.511812 22888 net.cpp:478] score <- upscore
I0217 12:01:48.511821 22888 net.cpp:478] score <- data_data_0_split_1
I0217 12:01:48.511829 22888 net.cpp:434] score -> score
I0217 12:01:48.511862 22888 net.cpp:156] Setting up score
I0217 12:01:48.511872 22888 net.cpp:164] Top shape: 1 2 182 243 (88452)
I0217 12:01:48.511878 22888 layer_factory.hpp:76] Creating layer score_score_0_split
I0217 12:01:48.511891 22888 net.cpp:111] Creating Layer score_score_0_split
I0217 12:01:48.511898 22888 net.cpp:478] score_score_0_split <- score
I0217 12:01:48.511907 22888 net.cpp:434] score_score_0_split -> score_score_0_split_0
I0217 12:01:48.511917 22888 net.cpp:434] score_score_0_split -> score_score_0_split_1
I0217 12:01:48.511931 22888 net.cpp:156] Setting up score_score_0_split
I0217 12:01:48.511945 22888 net.cpp:164] Top shape: 1 2 182 243 (88452)
I0217 12:01:48.511955 22888 net.cpp:164] Top shape: 1 2 182 243 (88452)
I0217 12:01:48.511961 22888 layer_factory.hpp:76] Creating layer loss
I0217 12:01:48.511971 22888 net.cpp:111] Creating Layer loss
I0217 12:01:48.511977 22888 net.cpp:478] loss <- score_score_0_split_0
I0217 12:01:48.511984 22888 net.cpp:478] loss <- label_label_0_split_0
I0217 12:01:48.511993 22888 net.cpp:434] loss -> loss
I0217 12:01:48.512006 22888 layer_factory.hpp:76] Creating layer loss
…
